nn_weights.pth (torch, 459042 bytes, 10 tensors)

conv1.weight f4 [32, 4, 8, 8]
0.015218225 -0.0033026552 -0.042212382 -0.06857204 0.03796178 -0.059495218 0.034982312 -0.06947647
-0.05032195 -0.04174581 0.037255064 -0.059450313 -0.054888774 -0.05946019 0.013845028 0.037462965
0.015256231 -0.0022214153 -0.06327094 -0.058395807 -0.0028983622 0.009539383 0.0010227653 -0.074558385
0.01769257 0.03628134 -0.008507386 0.037830923 -0.04338006 0.045994937 -0.019849973 -0.06579883
-0.023894291 0.017038936 -0.0038044986 -0.03238016 0.008075063 0.03723506 0.002601154 0.015994018
-0.04863666 -0.044541534 0.043183915 0.039222572 -0.022723228 -0.063743316 0.036024738 0.00043449952
0.045788847 0.036688272 -0.016266491 -0.058027975 -0.031496387 0.021786923 0.016415656 0.039195485
-0.025167182 -0.035350632 -0.06962108 -0.016503848 0.045311093 -0.049915493 -0.07264878 0.025890373
-0.055434488 -0.031766735 -0.02376469 0.006816479 -0.057424635 -0.038088758 -0.026791781 0.037349634
0.009287661 0.028429925 0.042131245 -0.0055588786 -0.02303004 -0.0075500067 -0.019825283 -0.07352121
0.034380697 -0.026524745 0.045252435 -0.00046016395 0.047888976 -0.055708744 0.0405044 -0.036905807
-0.02488292 -0.04442389 -0.040078864 -0.00816897 -0.06955898 0.048485354 0.012157194 -0.01735254
-0.005852888 0.024551492 -0.01122612 0.033147015 -0.0030868822 -0.036733605 -0.07151788 0.0479365
0.011217313 0.041780215 0.024707053 -0.05169712 -0.043406148 -0.03513113 0.010592822 -0.062195193
-0.029861813 -0.022883508 -0.054615792 -0.016849637 0.043802597 0.04052298 -0.01948449 -0.012823508
-0.021000294 0.047253333 0.041815076 -0.06522766 -0.0007545261 -0.07378708 0.00915559 -0.073425435
0.023315065 0.03122794 0.040564597 -0.012385882 -0.0692258 0.0245047 0.025676986 -0.03545923
0.0132156825 0.029296588 0.014369342 0.0032929794 0.012653163 -0.0183297 0.047772847 -0.0032403197
-0.032876555 0.016925337 0.0010040853 0.039615866 -0.03589317 0.043704405 0.014892509 -0.062298156
0.037056457 0.042243745 0.0071582976 0.047862772 -0.0006737402 0.033162914 0.02682198 0.031988416
0.046881326 -0.008418987 0.03468053 0.03538752 -0.07266019 0.008168168 -0.013941839 0.008698146
0.0123753315 -0.043105647 -0.06229891 0.008565803 -0.053064052 -0.047696393 -0.07503313 0.041281443
-0.06561019 -0.07085015 -0.0016267337 0.0058611124 -0.043052834 -0.03723065 -0.0155527275 -0.05495479
0.034679748 0.00059845566 -0.026977353 0.01126078 0.013353154 0.001939056 -0.047869492 -0.072142296
-0.0011511053 -0.01699652 0.012924913 -0.0662942 -0.032476228 0.046085324 0.014430432 -0.07471519
-0.045691267 -0.06937464 -0.014117819 -0.0650578 -0.069496445 0.008206223 -0.07384942 0.03233412
-0.02822057 0.0061186766 0.01937372 0.02262342 -0.01706843 -0.00768445 0.0039459257 -0.0224259
-0.032760255 0.015324389 0.03167451 -0.04172785 -0.033590782 -0.043422997 -0.044011872 -0.05804534
-0.013923972 0.003296934 -0.00018814452 -0.07071612 -0.033839848 -0.047309536 -0.0719528 0.0071563213
-0.01730937 -0.02029195 -0.07387402 -0.011978282 0.018383073 0.037959244 0.012220401 -0.03525854
-0.045340724 -0.0108347805 -0.004190135 0.0044370517 -0.036121678 0.0031703296 0.023536123 -0.028076151
0.036686923 -0.0568625 0.005915329 0.042670902 -0.04488281 0.035930205 0.048001003 -0.056828268
00000000: dd55 793c 5c71 58bb e4e6 2cbd 7f6f 8cbd
00000010: d07d 1b3d 42b1 73bd 9d49 0f3d ae49 8ebd
00000020: 641e 4ebd a8fd 2abd c498 183d 2c82 73bd
00000030: 0dd3 60bd 878c 73bd 42d6 623c c472 193d
00000040: 45f5 793c 2a95 11bb 3294 81bd 7130 6fbd
00000050: 73f2 3dbb 134b 1c3c 4f0e 863a 11b2 98bd
00000060: 02f0 903c be9b 143d 9062 0bbc 99f4 1a3d
00000070: 4aaf 31bd 3065 3c3d 699c a2bc 89c1 86bd
00000080: f6bd c3bc 3d95 8b3c e554 79bb 0fa1 04bd
00000090: 454d 043c ca83 183d 1f78 2a3b e305 833c
000000a0: 3c37 47bd 2f71 36bd 9ee1 303d d9a7 203d
000000b0: 1026 babc db8b 82bd ad8e 133d 8acd e339
000000c0: 168d 3b3d 7146 163d 4e41 85bc beae 6dbd
000000d0: 5b02 01bd 7d7a b23c 207a 863c 728b 203d
000000e0: 682b cebc d3cb 10bd 7f95 8ebd 1433 87bc
000000f0: 2098 393d 3074 4cbd e2c8 94bd 0c18 d43c
00000100: 460f 63bd d61d 02bd 2bae c2bc c55c df3b
00000110: 1836 6bbd f502 1cbd 707a dbbc eefb 183d
00000120: 462b 183c e0e5 e83c d091 2c3d 4127 b6bb
00000130: 7fa9 bcbc 0c66 f7bb a268 a2bc 4a92 96bd
00000140: c6d2 0c3d 6c4a d9bc 9e5a 393d 2942 f1b9
00000150: 3b27 443d da2e 64bd f1e7 253d 8b2a 17bd
00000160: 44d7 cbbc d3f5 35bd bc29 24bd 25d7 05bc
00000170: f074 8ebd 9498 463d f82e 473c ea26 8ebc
00000180: 95c9 bfbb 3620 c93c c3ed 37bc 2ac5 073d
00000190: 4a4d 4abb fa75 16bd f777 92bd 1059 443d
000001a0: d2c8 373c bb21 2b3d 7266 ca3c 5cc0 53bd
000001b0: a5ca 31bd a9e5 0fbd 848d 2d3c 63c0 7ebd
000001c0: c3a0 f4bc 3276 bbbc cfb4 5fbd 4008 8abc
000001d0: 5a6a 333d 6dfb 253d f09d 9fbc b119 52bc
000001e0: cf08 acbc b68c 413d 4946 2b3d 1496 85bd
000001f0: 64cb 45ba ae1d 97bd 5401 163c 1360 96bd
00000200: 3cff be3c bdd1 ff3c 1027 263d 28ee 4abc
00000210: 42c6 8dbd 15be c83c 8b58 d23c b33d 11bd
00000220: 9786 583c 66ff ef3c 636d 6b3c 07cf 573b
00000230: 364f 4f3c 2b28 96bc 76ad 433d 8b5b 54bb
00000240: 91a9 06bd 01a7 8a3c 839b 833a 3f44 223d
00000250: b704 13bd 6403 333d b6ff 733c 5a2c 7fbd
00000260: 83c8 173d c707 2d3d 2790 ea3b c10b 443d
00000270: f19d 30ba d6d5 073d c5b9 db3c 4906 033d
00000280: a206 403d caef 09bc 2c0d 0e3d 81f2 103d
00000290: dece 94bd c8d3 053c 506c 64bc ab82 0e3c
000002a0: e7c1 4a3c 8c8f 30bd 242d 7fbd 9557 0c3c
000002b0: b159 59bd 4b5d 43bd f8aa 99bd bb16 293d
000002c0: a35e 86bd e219 91bd 2038 d5ba 930e c03b
000002d0: 2b58 30bd 2b7f 18bd ded0 7ebc 4618 61bd
000002e0: 5a0c 0e3d aee1 1c3a 9cff dcbc 227f 383c
000002f0: 30c7 5a3c ec27 fe3a cd12 44bd 57bf 93bd
00000300: afe0 96ba 493c 8bbc 04c3 533c 41c5 87bd
00000310: cb05 05bd f7c3 3c3d 9e6d 6c3c 4704 99bd
00000320: c426 3bbd 4b14 8ebd 6d4e 67bc 063d 85bd
00000330: 2754 8ebd 6573 063c 5d3e 97bd c870 043d
00000340: d32e e7bc 2e7f c83b a3b5 9e3c c054 b93c
00000350: 18d3 8bbc d7cd fbbb d34c 813b 85b6 b7bc
00000360: 9e2f 06bd 2513 7b3c 22bd 013d d2ea 2abd
00000370: 7d96 09bd 50dc 31bd cb45 34bd f3c0 6dbd
00000380: 5f21 64bc 6011 583b a948 45b9 9dd3 90bd
00000390: a79b 0abd a5c7 41bd fd5b 93bd 937f ea3b
000003a0: 61cc 8dbc 4e3b a6bc 434b 97bd 8e40 44bc
000003b0: 1998 963c 277b 1b3d 1438 483c 426b 10bd
000003c0: 32b7 39bd 5d84 31bc 664d 89bb b064 913b
000003d0: 53f4 13bd 4ec5 4f3b d4ce c03c f5ff e5bc
000003e0: 0745 163d a7e8 68bd 60d5 c13b afc7 2e3d
000003f0: 0ad7 37bd 8d2b 133d b39c 443d c2c4 68bd

conv1.bias f4 [32]
-0.017966695 -0.050587606 0.01156611 0.040703498 0.050798588 -0.032341756 0.033968642 0.038791556
-0.011296624 -0.051378094 -0.073385954 0.04022413 0.05461324 0.013171636 0.031435266 0.031453975
0.013578963 -0.035269864 0.011099461 -0.07184521 0.016229771 -0.04440711 0.03229551 0.017323516
-0.02939754 0.016269783 -0.011122547 -0.08164148 -0.030609578 -0.045568485 -0.03466054 0.04196708
00000000: e42e 93bc f334 4fbd c87f 3d3c b6b8 263d
00000010: 2e12 503d ca78 04bd b422 0b3d e5e3 1e3d
00000020: 7a15 39bc d671 52bd 604b 96bd 0fc2 243d
00000030: 22b2 5f3d d8cd 573c 44c2 003d e2d5 003d
00000040: 4c7a 5e3c 2277 10bd 83da 353c 9523 93bd
00000050: 4cf4 843c 3be4 35bd 4c48 043d 0cea 8d3c
00000060: 1cd3 f0bc 3548 853c 583b 36bc a633 a7bd
00000070: f0c0 fabc 05a6 3abd 36f8 0dbd ace5 2b3d

conv2.weight f4 [64, 32, 4, 4]
-0.035851043 0.021107707 -0.010396278 -0.03980258 -0.062081583 0.007160063 0.021520494 -0.018799543
-0.022124927 -0.057918068 -0.005969168 -0.02712168 -0.01634086 0.00046624625 0.017822519 -0.0005299075
-0.0049119447 0.015593669 -0.050016556 -0.0070671206 0.042599726 0.029808642 0.03928773 -0.026069999
0.022085527 -0.013721319 -0.003579006 -0.0056599593 0.0050703175 -0.012014906 0.037817694 0.020524684
-0.010231394 0.01875538 -0.00053400174 0.012482755 -0.0032350086 0.03999881 -0.025425049 -0.039667666
0.017142441 0.030490842 0.025741499 0.0041863397 -0.031150036 -0.019847915 0.039910886 -0.02376067
-0.02197278 -0.0012479471 -0.01780981 -0.011356191 0.010575943 -0.035707444 0.0049015917 0.0167742
0.0066697258 0.0075759026 -0.027408564 0.023739938 -0.05476695 -0.00049213116 0.0043719513 -0.0015328462
0.040172603 -0.041429672 -0.024498377 -0.017212294 0.015452214 0.03254853 -0.020445894 0.026190128
-0.040589936 0.03111713 0.0055573955 -0.03630328 -0.02520008 0.038028378 -0.02993246 -0.016555829
0.028540332 -0.018175354 0.040701497 0.012964498 -0.03295681 0.010195237 0.034517106 -0.018369803
-0.0100158565 -0.0097894855 -0.029821765 -0.029843936 -0.010544889 -0.008796111 0.028932255 0.037109803
-0.020604748 -0.039664615 -0.036661685 0.003470816 -0.038917653 0.0346095 -0.011693654 -0.009521474
0.055418473 -0.016454538 0.018542608 -0.019710755 -0.022293095 -0.0003672831 0.01583552 0.020184487
0.024965333 0.024554979 -0.06014178 0.021947766 -0.02905769 -0.0034039286 -0.047076546 -0.006758063
0.0041442257 -0.060816243 -0.027423535 -0.0034336883 -0.03810806 -0.044176612 -0.038497612 -0.046834514
-0.018630993 -0.02904166 -0.04032975 -0.05511332 -0.018559666 -0.01652069 -0.03839423 -0.028015
0.019336905 -0.020021375 -0.0046816925 -0.042401288 -0.019613672 -0.05998909 0.023151461 -0.037999645
0.03859603 0.0330087 -0.006680254 0.0045243204 -0.042778533 -0.016253447 -0.027553907 -0.03406092
-0.025460953 -0.0008478351 -0.016231399 -0.035491534 0.034175348 -0.0022417977 0.01759477 -0.007178284
0.032945856 -0.04803308 -0.016672462 -0.033254534 0.008706219 -0.0051684873 -0.026591506 -0.003857768
0.023302458 0.008290618 0.012454249 -0.014553484 -0.021384377 0.013115356 0.021303313 -0.023253148
-0.0048470343 -0.0013158696 -0.0065770075 -0.03131916 -0.022273049 -0.055737488 -0.005909017 0.005073099
-0.008494639 -0.05847123 -0.03175462 -0.008883869 -0.01761743 0.009460874 7.7282326e-05 -0.0483604
1.9092113e-05 -0.013075307 -0.041655984 -0.0042008907 0.0010621734 -0.0026046 -0.00952239 -0.017721169
0.023363497 0.023642804 0.015767932 0.029716011 -0.0003410615 -0.027320571 -0.04060297 0.023853917
0.019888291 -0.0010486281 -0.03502597 -0.00023498895 0.018399946 0.020647429 0.008310057 0.025552252
0.0048763854 -0.06035898 0.0053309915 0.0005533638 0.005338129 -0.016902946 -0.038490396 -0.05928634
0.04098399 -0.0027258443 -8.341571e-05 -0.014306529 -0.02825422 -0.059500776 0.034327004 0.040989902
-0.009554276 -0.061035786 0.050911587 -0.014625777 -0.02120125 0.025434118 0.02687565 -0.018795943
0.01708269 -0.031681564 0.0060420004 -0.04908828 -0.018540464 -0.014443516 -0.006465456 0.016878864
-0.04852307 0.024584588 -0.015976349 0.003615611 -0.056163542 0.025212625 -0.044017404 -0.037719294
00000000: 8bd8 12bd 12ea ac3c 2755 2abc 0808 23bd
00000010: 4249 7ebd f69e ea3b bf4b b03c 8001 9abc
00000020: 563f b5bc 7f3b 6dbd 0399 c3bb 492e debc
00000030: 44dd 85bc 8372 f439 8800 923c 7ee9 0aba
00000040: 61f4 a0bb 977c 7f3c 29de 4cbd 4e93 e7bb
00000050: 0d7d 2e3d 4131 f43c 2cec 203d c090 d5bc
00000060: b5ec b43c 62cf 60bc c28d 6abb 2e77 b9bb
00000070: e824 a63b 2bda 44bc bae6 1a3d 6223 a83c
00000080: 94a1 27bc e2a4 993c 40fc 0bba 7884 4c3c
00000090: 7002 54bb cbd5 233d 3148 d0bc 907a 22bd
000000a0: 4e6e 8c3c eec7 f93c d6df d23c 902d 893b
000000b0: 5c2e ffbc 1898 a2bc 9979 233d bda5 c2bc
000000c0: 4200 b4bc 2892 a3ba e1e5 91bc 510f 3abc
000000d0: b846 2d3c f841 12bd 889d a03b 0c6a 893c
000000e0: b78d da3b 473f f83b ed87 e0bc 427a c23c
000000f0: 4f53 60bd 5d02 01ba 9642 8f3b c9e9 c8ba
00000100: 078c 243d 29b2 29bd d2b0 c8bc cc00 8dbc
00000110: 482b 7d3c 9b51 053d 267e a7bc ae8c d63c
00000120: a241 26bd 5ae9 fe3c d01a b63b c0b2 14bd
00000130: 6670 cebc a5c3 1b3d eb34 f5bc 17a0 87bc
00000140: 6acd e93c 7be4 94bc 9db6 263d 0c69 543c
00000150: b8fd 06bd ec09 273c cf61 0d3d 457c 96bc
00000160: 8c19 24bc 1464 20bc c64c f4bc 457b f4bc
00000170: 78c4 2cbc 901d 10bc 5603 ed3c 7300 183d
00000180: 4acb a8bc 5d77 22bd 902a 16bd a176 633b
00000190: 1e68 1fbd b1c2 0d3d bd96 3fbc f5ff 1bbc
000001a0: 7bfe 623d abcb 86bc abe6 973c 7378 a1bc
000001b0: 02a0 b6bc e78f c0b9 7eb9 813c f059 a53c
000001c0: 1984 cc3c 8627 c93c 3a57 76bd cdcb b33c
000001d0: 650a eebc 7214 5fbb 56d3 40bd be72 ddbb
000001e0: 49cc 873b 741a 79bd 52a7 e0bc bb07 61bb
000001f0: 3217 1cbd 89f2 34bd acaf 1dbd 8cd5 3fbd
00000200: 06a0 98bc c6e8 edbc cf30 25bd 81be 61bd
00000210: 710a 98bc 6656 87bc 4543 1dbd b77f e5bc
00000220: 6e68 9e3c de03 a4bc e268 99bb f9ac 2dbd
00000230: daac a0bc 1fb7 75bd 22a8 bd3c 84a5 1bbd
00000240: df16 1e3d 2134 073d 08e6 dabb c040 943b
00000250: 8b38 2fbd f325 85bc bbb8 e1bc 7783 0bbd
00000260: 7d93 d0bc 4041 5eba b6f7 84bc 925f 11bd
00000270: 73fb 0b3d 20eb 12bb e822 903c d037 ebbb
00000280: 3cf2 063d 56be 44bd b094 88bc e835 08bd
00000290: 87a4 0e3c 6a5c a9bb 6ed6 d9bc 9bd2 7cbb
000002a0: cce4 be3c 5fd5 073c e80c 4c3c bc71 6ebc
000002b0: 4a2e afbc cae1 563c 4984 ae3c 637d bebc
000002c0: dfd3 9ebb 4279 acba f083 d7bb 8548 00bd
000002d0: f875 b6bc fe4c 64bd 6da0 c1bb 3d3c a63b
000002e0: 192d 0bbc 877f 6fbd 2211 02bd a68d 11bc
000002f0: 6e52 90bc c801 1b3c a212 a238 8e15 46bd
00000300: 0028 a037 d039 56bc 779f 2abd a0a7 89bb
00000310: a038 8b3a f0b1 2abb cc03 1cbc fc2b 91bc
00000320: ce64 bf3c 8eae c13c c02b 813c fe6e f33c
00000330: 80d0 b2b9 64cf dfbc 4d4f 26bd 4a69 c33c
00000340: c5ec a23c 1f72 89ba 6477 0fbd 5e67 76b9
00000350: 7cbb 963c cc24 a93c e826 083c f552 d13c
00000360: 16ca 9f3b fa3a 77bd 99af ae3b 9e0f 113a
00000370: 79eb ae3b 0c78 8abc 1ba8 1dbd 3cd6 72bd
00000380: d4de 273d 14a4 32bb 78ef aeb8 ef65 6abc
00000390: 6575 e7bc 16b7 73bd 799a 0c3d 07e5 273d
000003a0: 8a89 1cbc a900 7abd ab88 503d f4a0 6fbc
000003b0: 3eae adbc 365b d03c 532a dc3c f3f9 99bc
000003c0: fff0 8b3c 87c4 01bd f9fb c53b cb10 49bd
000003d0: 2ce2 97bc 7fa4 6cbc 2ddc d3bb 8b45 8a3c
000003e0: 20c0 46bd 9e65 c93c d5e0 82bc e3f3 6c3b
000003f0: be0b 66bd b58a ce3c 984b 34bd 8c7f 1abd

conv2.bias f4 [64]
-0.21139525 -0.10791699 -0.05433341 0.29848868 -0.09742268 -0.11755389 0.4006597 -0.09335452
0.27314314 -0.080339454 -0.15920548 -0.009613085 -0.1464263 -0.08043092 -0.11296227 0.30885568
-0.099958 -0.14793512 -0.051002424 -0.026342569 -0.12977356 -0.21248856 -0.010956892 -0.11799565
-0.04855152 -0.009148812 -0.2192784 -0.018818855 -0.14131974 -0.06337106 -0.0024328942 -0.033925686
0.096853815 -0.039187916 -0.116607204 0.26159236 -0.042419486 -0.045015294 -0.103108436 -0.099857554
-0.04623203 -0.09755574 0.085901245 -0.09545638 -0.04905624 -0.21496716 -0.11679445 0.21200693
0.07556881 -0.08006771 -0.0074103074 -0.13748312 -0.13728087 -0.14728698 -0.1500141 -0.20555209
-0.06547108 -0.09570277 -0.06612312 -0.0032080272 -0.17758666 -0.17634849 -0.0316552 -0.1549982
00000000: ff77 58be 9503 ddbd b68c 5ebd 82d3 983e
00000010: 8b85 c7bd 18c0 f0bd 4523 cd3e a830 bfbd
00000020: 6bd9 8b3e 0389 a4bd c306 23be 3380 1dbc
00000030: c7f0 15be f7b8 a4bd c358 e7bd 5522 9e3e
00000040: c8b6 ccbd 4e7c 17be ebe7 50bd 5fcc d7bc
00000050: 5ce3 04be 9a96 59be 8984 33bc b4a7 f1bd
00000060: f5dd 46bd e6e4 15bc 848a 60be 002a 9abc
00000070: 1fb6 10be b0c8 81bd 3171 1fbb a9f5 0abd
00000080: 4b5b c63d 8283 20bd c2cf eebd 6fef 853e
00000090: 0ec0 2dbd f561 38bd 842a d3bd 1e82 ccbd
000000a0: cc5d 3dbd 4ecb c7bd feec af3d a27e c3bd
000000b0: 32ef 48bd 5a20 5cbe ee31 efbd 5818 593e
000000c0: d2c3 9a3d 8afa a3bd 2ad2 f2bb 60c8 0cbe
000000d0: 5b93 0cbe 66d2 16be 4c9d 19be 3f7c 52be
000000e0: b415 86bd d0ff c3bd 8f6b 87bd c43d 52bb
000000f0: 47d9 35be b394 34be e2a8 01bd d9b7 1ebe

conv3.weight f4 [64, 64, 3, 3]
-0.004732441 0.03784621 0.02251492 -0.036965333 0.0069373525 0.006963361 -0.037550207 0.00028963014
-0.03137465 0.013012379 0.010109451 -0.03594518 -0.03349231 0.0035905503 -0.013666827 0.0019936562
0.007852543 -0.04213909 -0.006913675 -0.047668412 0.025919583 0.02376459 0.0081175165 -0.018273233
-0.019347593 0.019695196 -0.0068708407 -0.021344123 -0.048299234 -0.010115269 -0.0037482935 -0.046050556
-0.0024754296 -0.031229831 -0.007924972 -0.056270707 -0.042004287 0.023845756 -0.044436384 -0.040018022
0.007607565 -0.0045394003 -0.020857621 -0.0358155 -0.0022214248 -0.0415368 -0.017970383 0.030527491
-0.025911069 -0.038457 -0.037947483 -0.01076304 -0.020303234 -0.024619158 0.003263146 0.015062337
-0.035792325 -0.011468351 0.008067516 -0.032891322 0.021684458 0.0035824056 -0.016461853 0.041504133
0.019200642 -0.016886493 0.0041123964 -0.036850873 0.023153823 -0.037808783 0.026980449 -0.0128092915
0.017294249 -0.047210276 -0.014435419 -0.060070604 -0.054822944 0.005289201 -0.0006840671 0.011972384
-0.025347501 0.0072855703 -0.044558473 -0.0100457 0.0060213045 -0.039851382 0.015318653 -0.05670517
0.0228696 -0.0074310517 0.0025524904 0.022029988 -0.025009297 -0.039043218 -0.011341221 0.004334274
-0.01682377 0.0038817613 -0.01403323 -0.018020993 0.024041535 0.013486814 -0.038365982 -0.045350287
-0.0043599196 -0.037035283 0.018837992 -0.027693208 0.024338234 -0.04904932 -0.007407222 0.015066568
-0.036166042 0.023113985 -0.018570408 -0.014380854 -0.0007901639 -0.05873374 -0.015016874 0.007048087
0.0015623894 -0.055335835 0.015185672 -0.016574841 -0.003832838 -0.054503594 0.017429436 -0.01303847
-0.047869552 -0.018643027 -0.03567334 -0.0061330204 -0.055982955 -0.011035303 0.010082594 0.020373117
-0.030589156 -0.027793465 -0.038017448 0.014719236 -0.045744497 -0.05202699 0.020467516 -0.04932244
0.024725745 0.010426997 -0.02972411 0.00781809 -0.016924277 0.020439532 0.00890214 -0.03296182
-0.014034619 0.018128082 0.002101481 0.019065175 0.021424856 -0.016469916 -0.051175766 0.022824597
-0.006559726 -0.001953712 -0.023742717 -0.0037612133 0.025516797 -0.051186316 -0.051305998 -0.054204978
-9.24626e-05 0.017814249 -0.029020201 -2.3492521e-05 -0.043890398 0.020097867 -0.03888659 -0.016363176
-0.019314485 -0.038298517 -0.03115781 0.016560316 -0.036969077 0.021678891 -0.046488278 0.033722263
0.0023174307 0.031756554 0.018531095 0.040665213 0.01879615 -0.049002323 -0.009572492 0.006184304
-0.013241082 -0.01807649 -0.026319347 -0.015930185 0.01781974 -0.028937625 -0.0072471346 -0.04372578
-0.0070005376 0.022619052 -0.0117265545 -0.0049534347 -0.04186195 -0.04281779 0.0079171145 0.0013881028
0.014280299 0.005880121 0.009365369 -0.05383649 0.028809581 0.03368074 -0.054660186 0.014340416
0.035415266 -0.02069751 -0.007510688 -0.040843368 0.012675282 -0.028381115 -0.022510847 -0.01973505
-0.013984254 -0.010301439 0.013383764 -0.013516514 -0.024375098 -0.02401592 -0.028320419 -0.016129926
0.005744503 0.0070962673 -0.0134934485 -0.03376711 0.04085386 -0.014102569 -0.034325585 0.03489319
0.017696206 0.0033565126 -0.020927643 -0.02775625 0.02491637 -0.031550076 -0.0200418 0.015911695
0.040725183 -0.015653467 0.026381131 -0.013548285 -0.038340263 0.016918499 -0.03867453 -0.0068146996
00000000: 9812 9bbb a104 1b3d 3671 b83c f668 17bd
00000010: bb52 e33b e82c e43b 3fce 19bd 80d9 9739
00000020: b482 00bd e031 553c 1ca2 253c 413b 13bd
00000030: 3c2f 09bd 704f 6b3b d4ea 5fbc 00a8 023b
00000040: f4a7 003c 0a9a 2cbd 1c8c e2bb f43f 43bd
00000050: 4e55 d43c f5ad c23c 55ff 043c bfb1 95bc
00000060: d87e 9ebc d257 a13c ca24 e1bb dfd9 aebc
00000070: 6bd5 45bd 83ba 25bc eea5 75bb 829f 3cbd
00000080: d13a 22bb b4d5 ffbc bed7 01bc 1d7c 66bd
00000090: b00c 2cbd 2d58 c33c ed02 36bd f0e9 23bd
000000a0: e148 f93b 40bf 94bb 9add aabc 46b3 12bd
000000b0: 5395 11bb 7e22 2abd a036 93bc ca14 fa3c
000000c0: 7343 d4bc 1685 1dbd d26e 1bbd 7657 30bc
000000d0: f852 a6bc 1eae c9bc 81da 553b 05c8 763c
000000e0: f99a 12bd c0e5 3bbc 9d2d 043c 0db9 06bd
000000f0: 9ba3 b13c cbc6 6a3b 02db 86bc 3d00 2a3d
00000100: aa4a 9d3c 8b55 8abc 48c1 863b f1f0 16bd
00000110: 16ad bd3c 62dd 1abd 1a06 dd3c 10de 51bc
00000120: abac 8d3c 905f 41bd 8982 6cbc 980c 76bd
00000130: 068e 60bd 0951 ad3b f752 33ba d127 443c
00000140: 90a5 cfbc cbbb ee3b f282 36bd b896 24bc
00000150: 5d4e c53b 343b 23bd 16fb 7a3c ae43 68bd
00000160: 0759 bb3c 2e80 f3bb af47 273b 3c78 b43c
00000170: 4ce0 ccbc c8eb 1fbd 87d0 39bc 8706 8e3b
00000180: 01d2 89bc 2665 7e3b a2eb 65bc c3a0 93bc
00000190: c1f2 c43c ccf7 5c3c a625 1dbd 39c1 39bd
000001a0: a8dd 8ebb 4fb2 17bd 2252 9a3c dedc e2bc
000001b0: fa60 c73c f1e7 48bd 48b8 f2bb c4d9 763c
000001c0: d822 14bd 8a59 bd3c f820 98bc ac9d 6bbc
000001d0: 0023 4fba ca92 70bd 5609 76bc a4f3 e63b
000001e0: 17c9 cc3a d4a7 62bd 53cd 783c f6c7 87bc
000001f0: 5a30 7bbb 293f 5fbd 2dc8 8e3c 4f9f 55bc
00000200: dd12 44bd 43b9 98bc 351e 12bd 81f7 c8bb
00000210: 624e 65bd 6acd 34bc 7731 253c 86e5 a63c
00000220: 1c96 fabc 1faf e3bc 2fb8 1bbd f328 713c
00000230: 955e 3bbd 411a 55bd 7eab a73c 5406 4abd
00000240: a58d ca3c ffd5 2a3c fa7f f3bc 7217 003c
00000250: c8a4 8abc ce70 a73c 48da 113c f902 07bd
00000260: 75f1 65bc 5881 943c 00b9 093b 922e 9c3c
00000270: 2e83 af3c ebeb 86bc ae9d 51bd a6fa ba3c
00000280: f8f2 d6bb d909 00bb 1680 c2bc b07e 76bb
00000290: 9a08 d13c bea8 51bd 3d26 52bd 0a06 5ebd
000002a0: 7be8 c1b8 30ef 913c c6bb edbc ce11 c5b7
000002b0: 6bc6 33bd 48a4 a43c 8c47 1fbd 110c 86bc
000002c0: 6939 9ebc e8de 1cbd aa3e ffbc 80a9 873c
000002d0: e36c 17bd ee97 b13c 7e6a 3ebd 5b20 0a3d
000002e0: 09e0 173b 2913 023d 86ce 973c 9190 263d
000002f0: 62fa 993c a9b6 48bd f1d5 1cbc b4a5 ca3b
00000300: 20f1 58bc 2615 94bc ac9b d7bc 0580 82bc
00000310: b4fa 913c 990e edbc 5f79 edbb ce19 33bd
00000320: c464 e5bb 974b b93c bc20 40bc 6c50 a2bb
00000330: 7077 2bbd b561 2fbd c9b6 013c 00f1 b53a
00000340: eaf7 693c 08ae c03b 3471 193c a783 5cbd
00000350: 1202 ec3c d1f4 093d 5ce3 5fbd 10f4 6a3c
00000360: 990f 113d d38d a9bc 381c f6bb 604b 27bd
00000370: fcab 4f3c 837f e8bc ab68 b8bc 66ab a1bc
00000380: 361e 65bc 5ec7 28bc 9347 5b3c 5e74 5dbc
00000390: 49ae c7bc 09bd c4bc 3900 e8bc e822 84bc
000003a0: 623c bc3b ce87 e83b a013 5dbc 624f 0abd
000003b0: 6156 273d 760e 67bc fc98 0cbd 29ec 0e3d
000003c0: a2f7 903c f0f8 5b3b 7370 abbc 1361 e3bc
000003d0: 6a1d cc3c a73a 01bd b32e a4bc 3e59 823c
000003e0: 73cf 263d b33b 80bc 3e1d d83c a0f9 5dbc
000003f0: ae0a 1dbd aa98 8a3c 2f69 1ebd d84d dfbb

conv3.bias f4 [64]
-0.0038813641 -0.05752767 0.005555192 0.018820705 0.08171978 0.011114731 -0.058181584 0.014502964
-0.008996365 -0.07658697 0.093899995 -0.08081337 -0.027458128 0.016805572 -0.046744417 0.011639371
-0.027261658 -0.027579026 -0.09915056 0.014465782 0.09999253 -0.034391485 -0.03682961 -0.012858116
-0.04981147 -0.041111425 -0.008536182 0.10261493 -0.12089874 -0.07633809 -0.03371756 0.12526943
-0.08031613 -0.035459258 -0.04248994 -0.057152808 -0.0436525 -0.02326446 0.010303358 -0.009028367
0.022802487 0.004109097 -0.07316939 -0.017568665 -0.026915513 -0.043985475 -0.077509515 -0.07357781
-0.039377853 -0.16445948 -0.14052232 -0.12044364 0.026434742 -0.032212913 0.019162912 0.0021833226
-0.04359242 -0.19948702 -0.08420509 -0.07482592 -0.022378722 -0.09213906 -0.05229296 -0.03710909
00000000: 7c5e 7ebb 22a2 6bbd 5408 b63b e12d 9a3c
00000010: b35c a73d 901a 363c d04f 6ebd d79d 6d3c
00000020: 7d65 13bc a1d9 9cbd a44e c03d 7b81 a5bd
00000030: deef e0bc d7ab 893c 1377 3fbd 0fb3 3e3c
00000040: d753 dfbc 69ed e1bc 730f cbbd e301 6d3c
00000050: e2c8 cc3d 16de 0cbd a5da 16bd d9aa 52bc
00000060: 1d07 4cbd 7464 28bd 58db 0bbc c727 d23d
00000070: c299 f7bd 2557 9cbd 6d1b 0abd a146 003e
00000080: c87c a4bd ba3d 11bd ee09 2ebd 1019 6abd
00000090: f7cc 32bd 1c95 bebc 6acf 283c b7eb 13bc
000000a0: 48cc ba3c 9ba5 863b d5d9 95bd 29ec 8fbc
000000b0: ec7d dcbc 1d2a 34bd 4fbd 9ebd f6af 96bd
000000c0: ac4a 21bd 1168 28be 15e5 0fbe 28ab f6bd
000000d0: ac8d d83c b0f1 03bd 8afb 9c3c 1316 0f3b
000000e0: f78d 32bd 5346 4cbe b873 acbd 553e 99bd
000000f0: 9553 b7bc 67b3 bcbd 2531 56bd b3ff 17bd

fc1.weight f4 [512, 64]
0.016164882 -0.028287133 -0.07644462 -0.073578574 -0.10136774 -0.14077683 0.042306274 0.025730984
0.032673486 0.17062235 -0.15532053 0.076666616 0.087916635 0.022920154 0.003206063 -0.0076865973
0.09470504 0.004868375 0.028546 -0.073020145 -0.08198876 -0.10049543 0.0630838 0.041102044
-0.06587251 -0.018589418 0.032058883 0.008611021 -0.060389113 0.1246246 -0.022484355 -0.011813531
0.060937 0.07926955 0.021298073 0.107667856 -0.05687228 0.09762398 0.043507166 -0.11464947
0.14263387 0.004333972 -0.029169394 -0.0623745 0.08650759 0.0012862958 0.12656392 -0.10573279
-0.0077978023 0.06737372 -0.118609175 0.029393429 -0.10047188 0.100948155 0.052305683 0.031486064
0.063832834 -0.024761718 0.0027861134 -0.05297235 0.072072126 -0.009731427 -0.018688712 -0.07944972
-0.12985271 -0.009316376 0.0839927 -0.11350925 -0.08912452 -0.10950209 0.10561214 -0.03145842
-0.0140812695 -0.11711365 0.0009813095 -0.098398775 0.005439271 0.10017775 0.077469625 -0.0020571568
0.044716414 -0.038263194 0.0037115538 -0.13968143 -0.14166203 0.09011541 -0.111423515 0.0025625112
-0.03785726 0.086118765 0.05852501 -0.19960725 -0.0010349973 -0.077926405 -0.028338064 -0.08774735
-0.07589025 -0.10786061 0.062605046 -0.0021487325 0.10640419 0.02261787 -0.013873294 0.064567044
0.016381752 0.08342615 -0.108342 0.106845796 -0.13185248 0.0229464 -0.100595295 0.048574854
0.0993293 -0.1447621 -0.006618372 -0.048556842 0.075139776 -0.07604738 -0.056859657 -0.12299766
0.098786704 -0.15666778 -0.00627823 0.006501732 -0.11887162 -0.09711867 0.019332424 0.05544397
0.033206195 0.06219926 0.0342889 -0.011705136 0.064107575 0.09956456 -0.08550444 0.11417251
-0.057833295 0.117769 0.06214389 -0.08268243 0.09408442 -0.030888453 -0.075399674 -0.02687645
0.053109653 0.032850623 0.0572021 -0.022038072 -0.03542562 -0.024884015 0.09634729 -0.14204827
-0.02210654 -0.029597037 0.006081179 0.116233386 0.11981792 -0.12413475 0.08373716 -0.048098985
0.06467651 -0.10088244 -0.011053358 0.076679125 -0.0006671426 -0.07464384 -0.10449459 0.1370365
0.04993175 -0.05309054 0.061140835 0.057706285 0.07106671 0.0106369555 0.04359792 -0.0798749
0.01351152 -0.0903344 -0.10892258 -0.14658609 -0.04896343 0.07711992 0.06082634 -0.035606295
0.01705017 0.03970343 -0.04136159 -0.0007612521 -0.115927614 0.025409566 -0.02762805 -0.13103285
0.04297191 0.07416483 -0.03421858 -0.05354288 -0.048727438 -0.072927214 -0.027583554 -0.0072737476
0.05169431 -0.089671254 -0.0052550836 0.12098158 0.028874407 -0.09343134 -0.12670317 -0.02215521
0.09529748 0.057478707 0.010951799 0.004797354 -0.047763005 -0.11355533 -0.14285544 -0.11209256
-0.096449874 -0.0091610355 -0.1274713 -0.006146798 -0.069415756 -0.02103878 -0.09092728 0.11868342
-0.03954249 -0.052063514 0.056541458 0.009775902 -0.11241119 0.060346536 -0.066725686 -0.027686115
-0.09047728 -0.04905434 0.018381134 0.106809 0.11443756 -0.0002953699 -0.117007405 -0.01652349
-0.002194481 -0.023770139 0.080879994 0.029572325 0.0049372436 -0.028969293 0.084583 0.104311734
0.09835138 -0.09808623 -0.05609247 0.027916562 0.0066833934 -0.20884909 -0.10038975 -0.00029456732
00000000: 376c 843c 6bba e7bc ff8e 9cbd 5db0 96bd
00000010: e499 cfbd cd27 10be 5849 2d3d c9c9 d23c
00000020: a2d4 053d a0b7 2e3e 580c 1fbe 6303 9d3d
00000030: a30d b43d 0cc3 bb3c d01c 523b dadf fbbb
00000040: b7f4 c13d e486 9f3b 4dd9 e93c 968b 95bd
00000050: b9e9 a7bd 8cd0 cdbd 1432 813d 9e5a 283d
00000060: 2be8 86bd d648 98bc 2d50 033d 3d15 0d3c
00000070: 935a 77bd 2f3b ff3d 1c31 b8bc 8a8d 41bc
00000080: 1399 793d 1358 a23d 4c79 ae3c f780 dc3d
00000090: e8f2 68bd 15ef c73d 9234 323d 57cd eabd
000000a0: 9d0e 123e fe03 8e3b a7f4 eebc 677c 7fbd
000000b0: e42a b13d ed98 a83a f999 013e 6f8a d8bd
000000c0: b584 ffbb 3cfb 893d 5ee9 f2bd 7dca f03c
000000d0: 33c4 cdbd e8bd ce3d 7c3e 563d 88f7 003d
000000e0: caba 823d 16d9 cabc 3a97 363b 89f9 58bd
000000f0: 8d9a 933d 9070 1fbc 1219 99bc 89b6 a2bd
00000100: 1cf8 04be b7a3 18bc 5d04 ac3d 8a77 e8bd
00000110: eb86 b6bd a242 e0bd 2d4b d83d 8bda 00bd
00000120: 20b5 66bc 48d9 efbd 489f 803a 4c85 c9bd
00000130: ea3b b23b fe29 cd3d 65a8 9e3d 5dd1 06bb
00000140: 8f28 373d deb9 1cbd 8a3d 733b a608 0fbe
00000150: da0f 11be 6e8e b83d 0332 e4bd ceef 273b
00000160: 3710 1bbd 095f b03d ecb7 6f3d d865 4cbe
00000170: bfa8 87ba e197 9fbd 3a25 e8bc e2b4 b3bd
00000180: 596c 9bbd 06e6 dcbd 1337 803d c0d1 0cbb
00000190: 71ea d93d 1c49 b93c d04c 63bc ba3b 843d
000001a0: 0633 863c 54db aa3d 69e2 ddbd f8d1 da3d
000001b0: 5604 07be 17fa bb3c e804 cebd 6df6 463d
000001c0: 296d cb3d 843c 14be eede d8bb 8ae3 46bd
000001d0: e2e2 993d bbbe 9bbd ace5 68bd 32e6 fbbd
000001e0: af50 ca3d 856d 20be 9cb9 cdbb 7b0c d53b
000001f0: f772 f3bd 27e6 c6bd 085f 9e3c 3719 633d
00000200: 3803 083d a7c4 7e3d 8572 0c3d e6c6 3fbc
00000210: d54a 833d 81e8 cb3d f41c afbd 47d3 e93d
00000220: 9be2 6cbd e030 f13d 978a 7e3d 6855 a9bd
00000230: 55af c03d c809 fdbc 256b 9abd 002c dcbc
00000240: 8289 593d 608e 063d c04c 6a3d 3089 b4bc
00000250: 741a 11bd 90d9 cbbc ba51 c53d 1a75 11be
00000260: c618 b5bc 7c75 f2bc a044 c73b c50b ee3d
00000270: 1963 f53d 5c3a febd 637e ab3d 7103 45bd
00000280: 1e75 843d 749b cebd 2519 35bc f209 9d3d
00000290: 2fe3 2eba dfde 98bd 4201 d6bd 4c53 0c3e
000002a0: 3c85 4c3d 7775 59bd d06e 7a3d 6d5d 6c3d
000002b0: 6c8b 913d a046 2e3c bc93 323d 7495 a3bd
000002c0: 6c5f 5d3c 3e01 b9bd cd12 dfbd aa1a 16be
000002d0: e18d 48bd 0cf1 9d3d 0a25 793d e8d7 11bd
000002e0: ccac 8b3c 10a0 223d c56a 29bd c38e 47ba
000002f0: 756b edbd b927 d03c 3854 e2bc 7a2d 06be
00000300: 5003 303d bbe3 973d c828 0cbd c74f 5bbd
00000310: 6c96 47bd dd5a 95bd e8f6 e1bc 9e58 eebb
00000320: 6abd 533d 90a5 b7bd d632 acbb 31c5 f73d
00000330: 058a ec3c ee58 bfbd 7abe 01be d87e b5bc
00000340: 532b c33d cb6e 6b3d 2d6f 333c 1f33 9d3b
00000350: 24a3 43bd b28f e8bd b248 12be c990 e5bd
00000360: 8387 c5bd 2b18 16bc d687 02be 146b c9bb
00000370: d929 8ebd 8559 acbc 1538 babd 4b10 f33d
00000380: 4ef7 21bd 8d40 55bd 0498 673d 1b2b 203c
00000390: d737 e6bd ee2d 773d 7aa7 88bd fecd e2bc
000003a0: 274c b9bd 34ed 48bd 0894 963c adbe da3d
000003b0: 3d5e ea3d e0db 9ab9 94a1 efbd 455c 87bc
000003c0: 48d1 0fbb 98b9 c2bc 69a4 a53d a941 f23c
000003d0: 9ac8 a13b 0351 edbc da39 ad3d 64a1 d53d
000003e0: 736c c93d 6fe1 c8bd 38c1 65bd 46b1 e43c
000003f0: 5e00 db3b 89dc 55be 2499 cdbd 2870 9ab9

fc1.bias f4 [512]
-0.10603544 -0.10241235 -0.046770964 -0.13395658 -0.120312855 -0.0063884323 -0.18738644 -0.0069965725
-0.18083484 -0.04308709 -0.17996551 -0.0034678765 -0.05081238 -0.10584376 -0.008391589 -0.15345298
-0.09604422 -0.09651039 -0.05404081 -0.10125202 -0.014157718 -0.07935329 -0.122393444 -0.033317454
-0.118583746 -0.0055471207 -0.11801843 -0.03109353 -0.004453159 -0.07817346 -0.0043680323 -0.09941135
-0.09612069 -0.09018583 -0.13467646 -0.030444786 -0.099591434 -0.12471852 -0.09903059 -0.0064800153
-0.12422831 -0.16735856 -0.04429926 -0.13277036 -0.10299862 -0.008481065 -0.00463765 -0.09844391
-0.003992594 -0.0039406167 -0.096362814 -0.2000928 -0.014613248 -0.017224245 -0.0053428467 -0.12655826
-0.13694021 -0.10065458 -0.094871506 -0.14806671 -0.08788208 -0.0065997066 -0.0045527318 -0.09692983
-0.003300953 -0.037575953 -0.11689709 -0.16457218 -0.15227604 -0.17147294 -0.19513166 -0.09618751
-0.11199734 -0.10035517 -0.053929746 -0.18874185 -0.09664793 -0.1545787 -0.080139026 -0.01609971
-0.09748127 -0.037305277 -0.12564698 -0.106669396 -0.16053191 -0.10112158 -0.12235982 -0.0037861117
-0.15628287 -0.027935117 -0.06909882 -0.0053160675 -0.010086539 -0.08400913 -0.028187284 -0.010289184
-0.0061592786 -0.106736936 -0.028240647 -0.009397338 -0.086035006 -0.0059190686 -0.16386491 -0.02404561
-0.013678003 -0.08533395 -0.11842603 -0.108291894 -0.0016214269 -0.07240832 -0.11748702 -0.045358006
-0.016550288 -0.010549586 -0.0051177335 -0.09970438 -0.01997054 -0.104699925 -0.054192692 -0.09689271
-0.005498106 -0.09703817 -0.07297875 -0.13377127 -0.107045114 -0.11359538 -0.059229795 -0.095946945
-0.123238645 -0.0014429432 -0.0017414164 -0.061876226 -0.13521813 -0.09575083 -0.09794366 -0.11828935
-0.009960624 -0.016565727 -0.23486254 -0.08688281 -0.0026835145 -0.10374877 -0.102381654 -0.07689942
-0.011161076 -0.10760719 -0.07405086 -0.0031660614 -0.0036996317 -0.046795752 -0.0032224269 -0.007749062
-0.097436704 -0.0679506 -0.13758384 -0.051783577 -0.010412892 -0.11630534 -0.10553534 -0.100073956
-0.05602311 -0.004024423 -0.09691875 -0.06874935 -0.10333613 -0.059335962 -0.12723775 -0.10021058
-0.09840828 -0.015977718 -0.073197134 -0.05454702 -0.038949326 -0.20862406 -0.09696584 -0.0053308136
-0.12937279 -0.0022318386 -0.20054516 -0.14970647 -0.10158737 -0.13329643 -0.09777931 -0.104897864
-0.023687432 -0.1044386 -0.09830538 -0.0052012973 -0.09644299 -0.13085882 -0.009078597 -0.12829307
-0.1489357 -0.09746374 -0.095832355 -0.008971279 -0.21345095 -0.091848806 -0.10387691 -0.14021395
-0.002850923 -0.06526168 -0.100771286 -0.07609193 -0.005204491 -0.0021651222 -0.031597618 -0.09667368
-0.16556811 -0.25034696 -0.09875618 -0.1134053 -0.093183205 -0.20673224 -0.066359825 -0.2021065
-0.11716064 -0.025376154 -0.021125814 -0.100225575 -0.09770425 -0.004188718 -0.09906239 -0.008172543
-0.10226836 -0.13441586 -0.029173853 -0.03399872 -0.104755804 -0.10470666 -0.11783486 -0.1253235
-0.111556485 -0.0035040625 -0.098548494 -0.11697474 -0.003983926 -0.007025063 -0.08594552 -0.098843195
-0.11096972 -0.045021277 -0.14414807 -0.097278886 -0.1293575 -0.11919025 -0.002844899 -0.0032091949
-0.024185967 -0.101145744 -0.019625807 -0.07164142 -0.039041508 -0.010003553 -0.1043766 -0.09832886
00000000: 1c29 d9bd 91bd d1bd e992 3fbd ea2b 09be
00000010: 9666 f6bd 0e56 d1bb 3be2 3fbe 8143 e5bb
00000020: c52c 39be 177c 30bd e148 38be 5045 63bb
00000030: a420 50bd 9dc4 d8bd e07c 09bc c722 1dbe
00000040: d5b2 c4bd 3da7 c5bd e559 5dbd 385d cfbd
00000050: c6f5 67bc fa83 a2bd 6aa9 fabd e277 08bd
00000060: 09dc f2bd 9fc4 b5bb a6b3 f1bd dcb7 febc
00000070: ceeb 91bb 6819 a0bd b621 8fbb 2e98 cbbd
00000080: edda c4bd 59b3 b8bd a0e8 09be 5867 f9bc
00000090: 98f6 cbbd 6c6c ffbd 8dd0 cabd 4f56 d4bb
000000a0: 6a6b febd 0b60 2bbe 2473 35bd f4f4 07be
000000b0: f1f0 d2bd 2af4 0abc 6ef7 97bb f69c c9bd
000000c0: 4ed4 82bb 4a20 81bb de59 c5bd 21e5 4cbe
000000d0: 686c 6fbc dc19 8dbc 0c13 afbb 7d98 01be
000000e0: 0e3a 0cbe fd23 cebd fe4b c2bd cd9e 17be
000000f0: 85fb b3bd 5a42 d8bb 152f 95bb 2683 c6bd
00000100: cd54 58bb 3ee9 19bd be67 efbd 9c85 28be
00000110: 40ee 1bbe 9a96 2fbe 98d0 47be f5fd c4bd
00000120: dd5e e5bd 0387 cdbd 70e5 5cbd 8b45 41be
00000130: 5aef c5bd e149 1ebe ee1f a4bd 8ae3 83bc
00000140: 43a4 c7bd 6bcd 18bd 9aa9 00be 7c75 dabd
00000150: 7a62 24be d518 cfbd c997 fabd 6a20 78bb
00000160: 9e08 20be 30d8 e4bc af83 8dbd 6832 aebb
00000170: 0342 25bc fb0c acbd 05e9 e6bc f793 28bc
00000180: c6d3 c9bb e598 dabd ee58 e7bc 4bf7 19bc
00000190: 1f33 b0bd bff4 c1bb 34cc 27be 4dfb c4bc
000001a0: b419 60bc 91c3 aebd 5989 f2bd 24c8 ddbd
000001b0: 0f86 d4ba d04a 94bd 099d f0bd 51c9 39bd
000001c0: 7894 87bc 2cd8 2cbc a9b2 a7bb cf31 ccbd
000001d0: 4299 a3bc ea6c d6bd 28f9 5dbd af6f c6bd
000001e0: 7529 b4bb f3bb c6bd e275 95bd 56fb 08be
000001f0: 783a dbbd b2a4 e8bd f19a 72bd d57f c4bd
00000200: 8b64 fcbd 2421 bdba 3d40 e4ba ed71 7dbd
00000210: 9f76 0abe 0319 c4bd b096 c8bd b041 f2bd
00000220: e331 23bc d9b4 87bc ce7f 70be 9def b1bd
00000230: e7dd 2fbb 3c7a d4bd 79ad d1bd 717d 9dbd
00000240: f2dc 36bc 2961 dcbd faa7 97bd b27d 4fbb
00000250: 8575 72bb e7ac 3fbd 5a2f 53bb d8eb fdbb
00000260: e58c c7bd af29 8bbd c7e2 0cbe 041b 54bd
00000270: d69a 2abc 7e31 eebd ea22 d8bd 93f3 ccbd
00000280: 7d78 65bd 4fdf 83bb 567d c6bd 76cc 8cbd
00000290: e5a1 d3bd 440a 73bd 9d4a 02be 343b cdbd
000002a0: 488a c9bd b4e3 82bc 61e8 95bd b26c 5fbd
000002b0: 5489 1fbd 8ca1 55be 0796 c6bd 1bae aebb
000002c0: 4d7a 04be 0a44 12bb b65b 4dbe a74c 19be
000002d0: 0a0d d0bd dc7e 08be 8540 c8bd b1d4 d6bd
000002e0: 250c c2bc e8e3 d5bd 5554 c9bd a56f aabb
000002f0: e783 c5bd dbff 05be 65be 14bc 425f 03be
00000300: 9a82 18be 129b c7bd c143 c4bd 45fc 12bc
00000310: e392 5abe 3a1b bcbd 6bbd d4bd 3f94 0fbe
00000320: 8dd6 3abb eaa7 85bd 2d61 cebd 16d6 9bbd
00000330: 6f8a aabb b9e4 0dbb 816c 01bd dafc c5bd
00000340: b08a 29be 7a2d 80be ae40 cabd 0a41 e8bd
00000350: d6d6 bebd 9eb1 53be a9e7 87bd 02f5 4ebe
00000360: ebf1 efbd a7e1 cfbc 0b10 adbc 1143 cdbd
00000370: 2a19 c8bd 8341 89bb 39e1 cabd 21e6 05bc
00000380: 1372 d1bd 50a4 09be 01fe eebc 3e42 0bbd
00000390: 368a d6bd 7270 d6bd 6753 f1bd ce54 00be
000003a0: ba77 e4bd 6aa4 65bb cbd3 c9bd 7490 efbd
000003b0: 988b 82bb 8032 e6bb 3404 b0bd 4d6e cabd
000003c0: 1844 e3bd 3b68 38bd 8d9b 13be 273a c7bd
000003d0: 4b76 04be 051a f4bd 7c71 3abb 5b51 52bb
000003e0: a621 c6bc 8025 cfbd 4dc6 a0bc bdb8 92bd
000003f0: fde9 1fbd f1e5 23bc 66c3 d5bd a460 c9bd

fc2.weight f4 [5, 512]
-0.08845155 -0.051466197 0.052236583 0.07802247 -0.024546757 0.07438008 -0.075415224 -0.109044425
-0.053669553 -0.015495325 -0.04381907 -0.03927312 0.01877039 0.0951446 -0.27764967 -0.07658169
0.072847836 -0.012454051 -0.2420759 0.014089344 -0.019851036 -0.0019466057 0.075726844 0.05849481
-0.08564225 -0.1401397 -0.016454827 -0.015690211 -0.075572796 -0.035094563 -0.07650376 0.0016946514
-0.03694459 0.07423941 0.051808488 -0.019559614 0.061089624 0.005714109 -0.013432199 -0.10395074
-0.031198371 -0.032539546 -0.00888284 -0.002477202 0.00934429 -0.11021504 -0.0038041456 0.0022380129
-0.012984071 0.045371782 -0.022892766 -0.04855359 0.04547071 0.10105741 -0.0914769 0.010914146
-0.07796561 -0.07152379 0.04278854 0.046879884 -0.002614639 -0.060395736 0.044668216 -0.032163825
-0.09758891 0.121994816 -0.10241413 -0.074443325 0.044080596 0.0014122637 -0.044479586 0.029869316
0.038092434 -0.029357309 0.067293584 0.014497263 -0.039524652 -0.0024816787 -0.13530326 0.03850784
-0.04608491 0.0628214 0.084063284 0.06297419 0.102566026 0.052324843 0.027651971 0.08225601
-0.06650904 -0.0015849732 0.045494296 0.048913106 0.049201414 0.04507218 0.031328525 -0.111050814
0.013437397 0.017016988 -0.0065990114 0.024336945 -0.002859973 -0.106453456 -0.058830634 0.014779933
-0.09634349 0.044254113 0.01548723 -0.01853842 -0.091829225 -0.043489665 -0.01679031 -0.12174377
0.00053161336 -0.0009506701 -0.0011296436 -0.11311243 0.020717492 0.093243316 0.058756802 0.046373256
-0.016311256 -0.010262711 0.08927842 -0.08026108 -0.03151325 -0.036002528 0.02766879 0.010280842
0.03829182 0.062378194 0.03197232 0.055215348 -0.038614403 0.028024998 -0.049907077 -0.015889155
-0.30712014 0.004694214 -0.035882227 0.032389972 0.022135308 -0.014885466 -0.025971612 0.022157744
0.017443215 -0.068365335 0.06406096 0.080685996 -0.0051656947 0.030695422 0.024308704 -0.10365288
-0.051667858 0.061293576 -0.059374608 0.0074252672 0.04071224 0.03998924 -0.03643629 0.030089779
0.077132784 -0.07599014 -0.0037333984 -0.0062537855 -0.025909506 -0.0026941858 0.05460528 -0.026288368
0.010048672 0.0022104122 -0.0059939157 -0.026092146 0.021236112 0.09233767 0.0063058166 -0.0121155735
0.033147205 -0.1311312 0.08377235 0.06887572 -0.08751139 0.059253283 0.01349331 0.055587113
0.06122169 0.07274325 0.008567854 -0.10593273 0.029651783 0.050104238 -0.08026087 0.11037562
-0.04331262 -0.11525908 -0.07035209 0.07839346 -0.06049345 0.052292667 -0.007936052 -0.058428
-0.15757059 0.02030883 -0.009468214 0.030432643 -0.09819618 0.007805991 -0.01161467 0.096403666
-0.06255026 -0.0554163 -0.05949051 -0.022687443 0.061852973 -0.10539145 0.08503866 -0.05172687
-0.05716603 -0.012489179 0.051391665 -0.2357266 -0.08112599 -0.10474569 0.025742961 -0.29536965
-0.04521186 0.06804416 0.009740183 -0.011201391 -0.04996282 -0.04374277 -0.09546311 0.08068645
-0.021156127 0.0668671 -0.0134519795 -0.019278063 -0.1034856 -0.07968348 0.03299429 -0.046980936
0.0009848387 -0.011727083 -0.0486993 0.00089878397 -0.060198635 -0.08322677 0.08713915 0.0060581793
0.06066654 -0.049222168 0.039102074 -0.018526154 0.0273395 -0.1055086 -0.000822924 -0.046946682
00000000: 1626 b5bd 38ce 52bd 07f6 553d 3fca 9f3d
00000010: 4816 c9bc 9554 983d 4c73 9abd af52 dfbd
00000020: 9bd4 5bbd 1be0 7dbc a07b 33bd dadc 20bd
00000030: 5cc4 993c 2cdb c23d 1928 8ebe dcd6 9cbd
00000040: 3f31 953d 130c 4cbc bfe2 77be fed6 663c
00000050: a49e a2bc 4025 ffba ad16 9b3d 4198 6f3d
00000060: 3465 afbd c880 0fbe 46cc 86bc c288 80bc
00000070: e9c5 9abd 51bf 0fbd 01ae 9cbd 111f de3a
00000080: 3653 17bd d50a 983d 2335 543d 7c3b a0bc
00000090: 1d39 7a3d 6c3d bb3b ba12 5cbc 20e4 d4bd
000000a0: ba93 ffbc 3048 05bd 5589 11bc 8e58 22bb
000000b0: cb18 193c 6cb8 e1bd f94e 79bb a0ab 123b
000000c0: 24bb 54bc c3d7 393d 9c89 bbbc 21e0 46bd
000000d0: 7f3f 3a3d 30f7 ce3d 3e58 bbbd 3fd1 323c
000000e0: 6fac 9fbd 117b 92bd 0943 2f3d 1f05 403d
000000f0: 5d5a 2bbb 8561 77bd 05f6 363d 37be 03bd
00000100: b2dc c7bd 6bd8 f93d 80be d1bd be75 98bd
00000110: db8d 343d b51b b93a 3a30 36bd 7fb0 f43c
00000120: d006 1c3d bd7e f0bc 38d1 893d ee85 6d3c
00000130: 9ae4 21bd a9a3 22bb f08c 0abe 66ba 1d3d
00000140: 88c3 3cbd 82a8 803d 5f29 ac3d 9df8 803d
00000150: 230e d23d 9352 563d 6386 e23c d775 a83d
00000160: e435 88bd e0be cfba 3a58 3a3d 1c59 483d
00000170: 6c87 493d 9b9d 383d 5752 003d 9c6e e3bd
00000180: 8728 5c3c 3667 8b3c 853c d8bb 465e c73c
00000190: 636e 3bbb 4504 dabd 64f8 70bd 8827 723c
000001a0: bc4f c5bd cd43 353d 27be 7d3c e2dd 97bc
000001b0: f610 bcbd 3822 32bd d58b 89bc cc54 f9bd
000001c0: f85b 0b3a 6436 79ba 8d10 94ba 7da7 e7bd
000001d0: bbb7 a93c 5af6 be3d f9aa 703d e2f1 3d3d
000001e0: 2f9f 85bc ee24 28bc 9bd7 b63d ec5f a4bd
000001f0: 0a14 01bd 6377 13bd a9a9 e23c fa70 283c
00000200: e2d7 1c3d 4780 7f3d 68f5 023d 7d29 623d
00000210: 232a 1ebd ae94 e53c 5d6b 4cbd f929 82bc
00000220: da3e 9dbe ecd1 993b 3ef9 12bd 59ab 043d
00000230: 1b55 b53c 2be2 73bc 6bc2 d4bc 2884 b53c
00000240: 13e5 8e3c 2003 8cbd 6532 833d b33e a53d
00000250: fd44 a9bb f774 fb3c 0c23 c73c f647 d4bd
00000260: ada1 53bd f90e 7b3d ca32 73bd a84f f33b
00000270: e1c1 263d c2cb 233d 383e 15bd d77e f63c
00000280: cbf7 9d3d b8a0 9bbd 08ac 74bb 8eec ccbb
00000290: 2c40 d4bc f090 30bb c9a9 5f3d b45a d7bc
000002a0: 2fa3 243c 90dc 103b 9c68 c4bb 32bf d5bc
000002b0: 5bf7 ad3c 881b bd3d 06a1 ce3b 6680 46bc
000002c0: 5dc5 073d 4247 06be d690 ab3d b70e 8d3d
000002d0: 2c39 b3bd 92b3 723d 0b13 5d3c 50af 633d
000002e0: 98c3 7a3d 6afa 943d 2f60 0c3c 42f3 d8bd
000002f0: 4ce8 f23c 1a3a 4d3d d05f a4bd 9d0c e23d
00000300: 9368 31bd f40c ecbd c214 90bd c08c a03d
00000310: fbc7 77bd d630 563d 3706 02bc 3352 6fbd
00000320: 2f5a 21be b45e a63c 9120 1bbc e14d f93c
00000330: 141b c9bd 66c9 ff3b 754b 3ebc 496f c53d
00000340: 5a1a 80bd 34fc 62bd 52ac 73bd 04db b9bc
00000350: 8b59 7d3d 79d7 d7bd c028 ae3d 8edf 53bd
00000360: ed26 6abd 6a9f 4cbc 1180 523d 5062 71be
00000370: 6225 a6bd e984 d6bd e7e2 d23c b13a 97be
00000380: 1230 39bd bd5a 8b3d 4a95 1f3c 0a86 37bc
00000390: d0a5 4cbd 9e2b 33bd 2a82 c3bd f03e a53d
000003a0: 9d4f adbc 9ef1 883d b165 5cbc 07ed 9dbc
000003b0: 42f0 d3bd 1831 a3bd 0525 073d 156f 40bd
000003c0: b415 813a f322 40bc eb78 47bd 5f9c 6b3a
000003d0: d892 76bd cc72 aabd 0376 b23d b183 c63b
000003e0: 7a7d 783d 2f9d 49bd 7f29 203d 29c4 97bc
000003f0: 16f7 df3c e514 d8bd 7fb9 57ba 2a4b 40bd

fc2.bias f4 [5]
-0.28818148 -0.2897752 -0.2865016 -0.28618369 -0.2874739
00000000: 868c 93be 6a5d 94be 56b0 92be ab86 92be
00000010: c72f 93be
